Vaishnavi.pt (torch, 54356 bytes, 9 tensors)

rnn.weight_ih_l0 f4 [64, 1]
0	0xbd54832d	-0.05188291
1	0xbdbde8db	-0.09272929
2	0x3daca66a	0.084301785
3	0x3d5dba4c	0.054132745
4	0x3db096b8	0.08622497
5	0xbdcc7652	-0.09983505
6	0x3d725963	0.059167277
7	0xbdab96f9	-0.08378405
8	0xbdaa9d56	-0.08330791
9	0x3e11a1cd	0.14221878
10	0xbdfd833a	-0.12378545
11	0x3e071398	0.13191068
12	0xbdb0705e	-0.08615182
13	0xbcb86737	-0.022510154
14	0x3d027606	0.031850837
15	0xbd65102b	-0.055923622
16	0x3c6f384a	0.014600823
17	0xbd08774a	-0.033316888
18	0xbd2fdfae	-0.042937927
19	0x3dc79128	0.09744483
20	0x3d79dfbb	0.06100438
21	0xbd864643	-0.0655637
22	0x3daddcaa	0.08489354
23	0xbe04e7ca	-0.12979046
24	0xbe07ad26	-0.13249645
25	0xbdd26ded	-0.10274873
26	0x3d949478	0.07254881
27	0xbe1a39c7	-0.15061103
28	0x3d00277d	0.03128766
29	0xbcfcae6b	-0.030844888
30	0x3bb4c253	0.0055163293
31	0x3df7c918	0.120989025
32	0xbda340db	-0.079713546
33	0xbd915fb9	-0.07098336
34	0x3da8956f	0.08231627
35	0x3de9909d	0.11404536
36	0xbdd2d555	-0.10294596
37	0xbdc6568a	-0.09684475
38	0xbcfece65	-0.031104276
39	0xbcf5f98b	-0.030026218
40	0xbd5ba19c	-0.05362092
41	0x3c804d1c	0.015661769
42	0xbdbec037	-0.09314006
43	0x3d94dd10	0.07268727
44	0x3e066e6f	0.13128065
45	0xbda82df4	-0.0821189
46	0x3c9cb87f	0.019130943
47	0xbe091997	-0.13388668
48	0x3d3e4093	0.0464483
49	0xbdd52d13	-0.10408988
50	0x3e0957c1	0.13412382
51	0xbdbf430a	-0.093389586
52	0x3dfb9846	0.12284903
53	0x3e11d654	0.14241916
54	0x3d265204	0.04060556
55	0xbd611a8f	-0.05495697
56	0xbdc80d55	-0.09768168
57	0xbd3c56ea	-0.045981325
58	0x3c3f966e	0.01169358
59	0xbe07d387	-0.13264285
60	0x3d61ac1f	0.055095788
61	0x3dbbea1d	0.09175513
62	0xbd3f6e1b	-0.046735864
63	0x3d9e1e90	0.07720673

rnn.weight_hh_l0 f4 [64, 64]
0	0xbdf39634	-0.11893883
1	0x3d324c0e	0.043529563
2	0xbdb7df18	-0.08978099
3	0xbda7268e	-0.081616506
4	0xbc4d0e38	-0.012515597
5	0xbc5a74be	-0.013333498
6	0xbde4b3db	-0.11167117
7	0xbdbe285d	-0.092850424
8	0x3ddc054c	0.10743198
9	0xbdd31505	-0.103067435
10	0x3da3efad	0.08004699
11	0x3d99c196	0.07507627
12	0x3d48dac7	0.049036767
13	0xbc7ed92b	-0.015554707
14	0x3da66957	0.08125561
15	0xbdc6a76c	-0.09699902
16	0x3dfa9370	0.12235153
17	0x3cc97f4f	0.024596838
18	0xbd93c051	-0.07214416
19	0x3c37ea41	0.011225284
20	0xbbfb581c	-0.0076704156
21	0x3db216c4	0.086957484
22	0x3dfd1566	0.12357597
23	0x3dcc1597	0.099650554
24	0xbddacfec	-0.10684189
25	0x3d491904	0.049096122
26	0xbdc1bc0d	-0.09459696
27	0xbb70bec0	-0.003673479
28	0xbdce7691	-0.100812085
29	0xbe00ee2e	-0.12590858
30	0x3df9d914	0.121996075
31	0xbdfb40c8	-0.122682154
32	0xbdded366	-0.10880165
33	0x3ca4a63c	0.020098798
34	0x3d948431	0.07251776
35	0x3d434854	0.0476764
36	0x3c8c4d95	0.017126838
37	0x3b470f82	0.0030374234
38	0xbc53dcc1	-0.01293105
39	0x3c63c69e	0.0139023345
40	0xbdb9f161	-0.090792425
41	0x3e03d42e	0.12873909
42	0xbd7490a1	-0.05970824
43	0xbcddda3c	-0.027081601
44	0xbd9a63fa	-0.075386
45	0x3d28fd62	0.04125727
46	0xbd77dfc6	-0.06051614
47	0x3ddec22b	0.10876878
48	0xbc87818e	-0.016541269
49	0x3d901a29	0.0703624
50	0xbd97fd0c	-0.07421312
51	0xbdad65e4	-0.084667
52	0x3d46a0f7	0.04849335
53	0x3c34fad4	0.01104613
54	0x3e038a15	0.12845643
55	0x3dc00e27	0.09377699
56	0xbd8afc46	-0.067863986
57	0x3d5484f8	0.05188462
58	0xbe0c6690	-0.13711
59	0x3d56c48e	0.052433543
60	0x3cca711b	0.024712136
61	0xbd9c52a3	-0.07632949
62	0xbd2d4eb0	-0.04231137
63	0xbdd9d999	-0.106372066
64	0xbdc5165f	-0.096234076
65	0xbd7b61d8	-0.061372608
66	0x3d8929f9	0.06697459
67	0xbe0642f9	-0.13111486
68	0xbb943c34	-0.0045237783
69	0x3c6445ef	0.013932689
70	0xbd90bf72	-0.07067765
71	0xbd75b5f6	-0.059987985
72	0x3cb7a311	0.022416623
73	0x3e0eab19	0.13932456
74	0x3d6e605b	0.05819736
75	0x3cc7c767	0.024387075
76	0xbc4bbec2	-0.012435617
77	0xbdfd82b8	-0.12378448
78	0x3df29e4f	0.11846601
79	0xbdc4abe6	-0.096030995
80	0xbc06e5e7	-0.008233524
81	0x3d5137ea	0.051078714
82	0xbd900528	-0.070322335
83	0xbcae91fd	-0.021309847
84	0xbcaf18e4	-0.021374173
85	0x3dfea29a	0.124333575
86	0xbdbec2bd	-0.09314487
87	0x3d86c717	0.06580942
88	0xbdf17723	-0.11790302
89	0x3be3c2b2	0.0069506997
90	0xbc524c37	-0.012835554
91	0xbddb1c36	-0.1069874
92	0x3dcb696b	0.09932216
93	0xbc1e505d	-0.009662715
94	0x3d86069f	0.065442316
95	0x3dfc06d1	0.123059876
96	0x3d6e7d13	0.05822475
97	0xbd2e3a17	-0.042535868
98	0x3d3952e6	0.045245074
99	0xbd1bc574	-0.038030103
100	0x3d702c20	0.05863583
101	0x3da0255e	0.07819627
102	0x3b160a1d	0.0022894212
103	0xbde119a3	-0.10991218
104	0x3de4815b	0.11157485
105	0x3db4bf9f	0.08825611
106	0x3dc69082	0.096955314
107	0x3e050cb2	0.12993124
108	0x3d5ee87f	0.054420944
109	0x3bc9e723	0.006161587
110	0xbd5c0a02	-0.05372048
111	0xbdc938ec	-0.0982531
112	0xbdc67c99	-0.09691734
113	0xbd11e32b	-0.035617035
114	0x3cdd62af	0.027024595
115	0x3d06e27c	0.032930836
116	0xbd8b90fc	-0.06814763
117	0x3d91d0d2	0.071199074
118	0xbdc00dc9	-0.09377629
119	0x3cab85f0	0.02093789
120	0xbe006cce	-0.12541506
121	0x3dbef2f3	0.09323683
122	0xbdfa4065	-0.122193135
123	0x3c703467	0.014660931
124	0xbd711ce8	-0.058865458
125	0x3df3ca8f	0.11903869
126	0xbc6c79f4	-0.014433373
127	0x3dbbdf16	0.0917341
128	0xbe102881	-0.14077951
129	0x3c37ba5a	0.011213863
130	0x3d9b3a8d	0.07579527
131	0x3ca1d5ca	0.019755263
132	0x3daa437f	0.08313655
133	0xbcc09d0a	-0.023512382
134	0x3d0922a7	0.033480313
135	0x3ddcb79c	0.10777208
136	0xbddb03fa	-0.10694118
137	0x3ce5f254	0.028069653
138	0x3dada6cc	0.084790796
139	0xbdab2b83	-0.083579086
140	0x3d495389	0.04915193
141	0x3d425395	0.04744299
142	0xbd91523b	-0.07095762
143	0xbae7f7ec	-0.0017697788
144	0x3d6857a0	0.05672419
145	0x3c94e068	0.018173411
146	0xbcb10fe4	-0.021614023
147	0xbd2de1b0	-0.04245156
148	0x3deb6608	0.1149407
149	0x3b5539d8	0.0032535698
150	0x3ca52f56	0.020164173
151	0x3c6f8114	0.014618177
152	0xbe0b8f58	-0.136289
153	0xbdc34909	-0.09535415
154	0xbd2ecaad	-0.042673755
155	0xbd6ca485	-0.057774086
156	0x3da2f263	0.07956388
157	0x3d7610aa	0.060074486
158	0xbdcbf0b0	-0.09958017
159	0xbd863e60	-0.06554866
160	0x3b7a759c	0.0038217073
161	0x3d59463d	0.0530455
162	0xbc58fb59	-0.01324352
163	0xbcd2950f	-0.025705842
164	0xbe095511	-0.13411357
165	0x3cd585ec	0.026064835
166	0xbc987276	-0.018609267
167	0xbdd5f2ec	-0.10446724
168	0x3df3c8bc	0.119035214
169	0x3dca22c4	0.09869912
170	0xbde72c85	-0.11287788
171	0x3d3696b5	0.04457732
172	0xbd0cb0cd	-0.034348298
173	0xbde1ca69	-0.11024935
174	0x3dd081e8	0.10181028
175	0xbdd1fb5a	-0.1025302
176	0xbd501765	-0.05080356
177	0xbdfafb7b	-0.12254997
178	0x3e050001	0.12988283
179	0x3c572850	0.01313217
180	0xbbba6d17	-0.005689274
181	0xbccced27	-0.025015427
182	0x3d653717	0.05596074
183	0xbc3ce888	-0.011530049
184	0xbd1912ec	-0.03737156
185	0xbde2a490	-0.11066544
186	0xbd7c62bc	-0.061617598
187	0xbdd0f95d	-0.10203812
188	0xbaaf027f	-0.0013352184
189	0x3dad09fd	0.08449171
190	0xbdad2587	-0.084544234
191	0x3e018182	0.1264706
192	0xbd429e46	-0.047514223
193	0x3d28b272	0.041185804
194	0xbda5f772	-0.08103837
195	0xbdf8493c	-0.12123343
196	0x3d660121	0.05615342
197	0x3d2c67e5	0.04209127
198	0x3df10fd6	0.117705986
199	0xbbd692be	-0.0065482548
200	0xbc2863c4	-0.010277692
201	0xbdd7eafe	-0.10542868
202	0xbdbc47cd	-0.091933824
203	0x3cbc6b35	0.023000339
204	0x3cda411c	0.026642375
205	0x3c896f64	0.016776748
206	0xbd94ab87	-0.07259279
207	0x3c25a5f0	0.010110363
208	0x3dfee1f2	0.124454394
209	0xbd0637a7	-0.032767918
210	0xbd8ab287	-0.06772333
211	0x3dd0792c	0.10179362
212	0x3ce02d4d	0.027365351
213	0xbb9632fe	-0.0045837155
214	0x3da92ec8	0.08260876
215	0xbbe83b2a	-0.007087131
216	0x3d9201df	0.07129263
217	0x3c4cdd55	0.012503942
218	0xbb4a8939	-0.0030904545
219	0x3c27fde8	0.010253407
220	0x3dc6ee30	0.097133994
221	0xbcb79d77	-0.022413952
222	0xbc812a26	-0.015767168
223	0x3d0ae053	0.03390534
224	0xbe0a18ef	-0.13486074
225	0xbdcfa2a8	-0.10138446
226	0x3dadaaad	0.084798194
227	0x3dfca7b9	0.12336678
228	0xbdd083e2	-0.10181405
229	0x3d054f09	0.032546077
230	0xbd976ba9	-0.073935814
231	0x3dca06ba	0.09864564
232	0x3d81f31a	0.06345196
233	0x3d95da64	0.07317045
234	0x3df18a2a	0.11793931
235	0xbcee0155	-0.02905337
236	0xbdd16a66	-0.10225372
237	0x3c35448e	0.011063708
238	0x3cca4d39	0.024695026
239	0x3dc56a37	0.096393995
240	0x3e0abd9c	0.13548893
241	0x3dc912b7	0.09818023
242	0xbd8f91d7	-0.070102386
243	0xbc0ce79a	-0.00860014
244	0xbdd0c25d	-0.10193322
245	0xbd19928a	-0.037493266
246	0xbdd4173b	-0.10355993
247	0xbd29be16	-0.041441046
248	0xbd2e5b2c	-0.042567417
249	0x3db8d7fb	0.0902557
250	0x3c238cf7	0.009982339
251	0xbdb11e21	-0.08648325
252	0xbd691c67	-0.056911852
253	0x3dbe313a	0.09286733
254	0x3d845522	0.0646155
255	0x3dda8d1f	0.10671448

rnn.bias_ih_l0 f4 [64]
0	0xbc2e245a	-0.010628784
1	0xbdd3ff08	-0.10351378
2	0xbc808a9e	-0.015691098
3	0xbda15a45	-0.07878546
4	0x3c317711	0.01083161
5	0x3dab28c5	0.083573855
6	0x3d9ad38b	0.0755988
7	0x3db5cfc7	0.08877521
8	0x3d728e23	0.059217583
9	0x3db69fb8	0.08917183
10	0xbdaf1040	-0.08548021
11	0x3df35375	0.118811525
12	0x3dcdc919	0.10048122
13	0xbd3b9d9b	-0.0458046
14	0xbc07fffa	-0.008300776
15	0xbdcc3d35	-0.09972612
16	0x3d9f5aba	0.077809766
17	0xbd0be4b3	-0.03415365
18	0x3de31bfd	0.11089323
19	0xbdd2987d	-0.10282991
20	0x3d327e5a	0.04357753
21	0x3bbc2471	0.005741649
22	0x3d9632d4	0.073339134
23	0x3ce13cdb	0.027494838
24	0xbd41ce3a	-0.047315814
25	0xbd91e22f	-0.07123219
26	0x3c602c16	0.013682386
27	0xbdb519d3	-0.08842816
28	0x3d92a714	0.07160774
29	0xbdc4ac65	-0.09603194
30	0x3cf625af	0.030047266
31	0x3db76aeb	0.0895594
32	0x3d86aaba	0.06575532
33	0x3e01db20	0.12681246
34	0x3d712c6c	0.058880255
35	0x3d47eda5	0.04881062
36	0xbd9e5098	-0.07730216
37	0x3d80846f	0.0627526
38	0xbd5646a1	-0.05231345
39	0xbddf1368	-0.10892373
40	0x3d694e0c	0.056959197
41	0xbdd5674a	-0.104200915
42	0x3d92703b	0.071503125
43	0x3d05f119	0.03270063
44	0xbd2dc75a	-0.042426445
45	0xbdbf8ae2	-0.09352662
46	0x3d48f8ba	0.04906533
47	0x3d0a6f0f	0.03379732
48	0xbd4156a9	-0.047201786
49	0xbd9d71f4	-0.076877505
50	0x3c2e206f	0.01062785
51	0xbbe5c44b	-0.0070119253
52	0xbd8a7668	-0.067608654
53	0xbdb14021	-0.0865481
54	0x3b15b467	0.0022843124
55	0xbcbc576f	-0.02299091
56	0x3d144f2a	0.03620831
57	0x3d70d8c1	0.058800463
58	0x3d5194aa	0.051167168
59	0xbd2362da	-0.039889194
60	0xbdaf1e8f	-0.085507505
61	0xbc0cc11f	-0.0085909655
62	0x3d954c6d	0.07289968
63	0x3cbc96c9	0.023021119

rnn.bias_hh_l0 f4 [64]
0	0x3d94123e	0.07230042
1	0x3c9d2242	0.019181374
2	0x3dd3ecf3	0.10347929
3	0xbc6b1e3f	-0.014350473
4	0x3d02224d	0.031770993
5	0x3d473afe	0.048640244
6	0x3be01e93	0.006839582
7	0xbd912724	-0.070875436
8	0xbbfb8836	-0.0076761497
9	0x3c96765d	0.018366987
10	0x3dd9172a	0.10600121
11	0xbda6bd18	-0.081415355
12	0xbdcf8c77	-0.101342134
13	0xbca95c98	-0.020674035
14	0x3c5303b7	0.012879304
15	0xbcd5e4d5	-0.026110092
16	0xbcbeeea0	-0.023307145
17	0xbdaa6010	-0.08319104
18	0xbcf7b472	-0.03023741
19	0xbcd88d2d	-0.026434505
20	0x3c7200a1	0.014770658
21	0x3e076ef2	0.13225916
22	0x3d1e9724	0.038718358
23	0xbd196516	-0.03744992
24	0x3d4b795f	0.049676295
25	0xbb869c4c	-0.0041079875
26	0x3d7bbf5c	0.06146179
27	0xbd168ebd	-0.03675722
28	0xbd9f0177	-0.07763951
29	0x3d213bf4	0.039363816
30	0x3cfb2d33	0.030661201
31	0xbd874f9f	-0.066069834
32	0x3b38eb26	0.0028216331
33	0x3cc1a956	0.023640316
34	0x3c83a41e	0.016069468
35	0x3d2c30da	0.042038776
36	0x3b6fce7b	0.0036591578
37	0x3e0299de	0.12754008
38	0xbba9e30b	-0.0051845363
39	0xbc40807e	-0.011749385
40	0x3d46bb35	0.04851838
41	0x3d92d85e	0.07170175
42	0x3d20c967	0.039254572
43	0xbdf1b3bd	-0.118018605
44	0x3dba30a1	0.090913065
45	0xbd22623a	-0.039644457
46	0x3d8bb6dd	0.06821988
47	0xbd53cb73	-0.051707696
48	0x3ce5dc32	0.028059099
49	0xbdf0a9f0	-0.11751163
50	0xbcf5c493	-0.03000096
51	0xbc28073a	-0.010255629
52	0x3da81a06	0.082080886
53	0xbc61f7db	-0.0137920035
54	0x3d8f734e	0.070044145
55	0x3dab8c24	0.08376339
56	0xbdd2bfc5	-0.102904834
57	0x3d874887	0.0660563
58	0xbde70895	-0.11280934
59	0x3c0ef9b0	0.008726522
60	0x3d426037	0.04745504
61	0xbda5f871	-0.08104027
62	0xbd52dee4	-0.051482096
63	0x3ce50268	0.027955249

rnn.weight_ih_l1 f4 [64, 64]
0	0x3cd76d16	0.026297133
1	0xbdc430b8	-0.09579605
2	0xbdab1e76	-0.08355419
3	0x3ddc014a	0.10742433
4	0x3db8e121	0.09027315
5	0x3d5506df	0.052008506
6	0xbdf7e4d5	-0.12104193
7	0x3d8f110e	0.06985675
8	0x3d1273dd	0.035755027
9	0xbda74a8f	-0.08168518
10	0xbd688e61	-0.056776408
11	0xbd456730	-0.04819411
12	0x3e0dffef	0.13867162
13	0xbb81e1d4	-0.0039636884
14	0xbdf4d466	-0.11954574
15	0xbd56fe00	-0.052488327
16	0xbd892ee3	-0.06698396
17	0xbd144fdb	-0.03620897
18	0x3d81b596	0.06333463
19	0x3dd3a139	0.10333485
20	0xbdd166f1	-0.10224713
21	0xbde5ad4d	-0.11214695
22	0xbd32f6d2	-0.043692417
23	0xbd0dd81e	-0.034629934
24	0x3df6275e	0.120192274
25	0x3c98b98b	0.018643161
26	0x3da221ca	0.07916601
27	0xbc9960da	-0.01872294
28	0xbd74225b	-0.059603076
29	0x3ded7de4	0.11596277
30	0x3d31895b	0.043343883
31	0x3c193ea5	0.0093533145
32	0x3dd6d3d3	0.10489621
33	0x3def3464	0.116799146
34	0x3cd91495	0.026499072
35	0x3d1711ea	0.03688232
36	0x3bd49ca2	0.0064883986
37	0xbd367aa5	-0.044550557
38	0x3cdd08f9	0.026981818
39	0xbd467cff	-0.04845905
40	0x3d09ba1e	0.03362476
41	0xbd664fdb	-0.0562285
42	0x3d958721	0.073011644
43	0xbd37bb4f	-0.044856366
44	0xbdaec830	-0.085342765
45	0x3d81ff26	0.06347494
46	0xbddd92c9	-0.10819013
47	0x3e033638	0.12813652
48	0x3cd7a45b	0.026323488
49	0x3d812fa8	0.06307918
50	0xbcdf4459	-0.02725427
51	0xbda7b298	-0.08188361
52	0x3c844d37	0.0161501
53	0xbd3fa0d8	-0.046784252
54	0xbcc654ce	-0.02421036
55	0x3de74187	0.11291795
56	0xbda40490	-0.08008683
57	0xbdaf5ec1	-0.08562995
58	0x3dab0de4	0.08352259
59	0xbd2d8698	-0.042364687
60	0xbe0398ca	-0.12851253
61	0xbd1ad918	-0.037804693
62	0x3da5d98d	0.08098135
63	0xbc8cb175	-0.017174462
64	0xbd7b6d5a	-0.061383583
65	0x3da3787f	0.07981967
66	0xbdc4507b	-0.09585663
67	0xbd770a2e	-0.060312442
68	0xbc2bb6da	-0.010480607
69	0xbdfa17af	-0.122115485
70	0xbce650d4	-0.028114714
71	0xbdc6eafd	-0.09712789
72	0x3d81d5bb	0.06339594
73	0x3da434af	0.08017861
74	0x3dcf01c9	0.10107762
75	0xbd99f9a8	-0.07518321
76	0xbd5df112	-0.05418498
77	0x3dcd14ba	0.10013719
78	0xbd79f5d8	-0.06102547
79	0x3df9ee0b	0.12203606
80	0xbdc0e047	-0.094177775
81	0xbcb5866b	-0.022158822
82	0xbde1ab09	-0.110189505
83	0x3de4bb27	0.11168509
84	0x3ba6bbc9	0.0050883037
85	0xbd2eab30	-0.042643726
86	0x3d30ea8e	0.04319244
87	0x3bc6067a	0.0060432525
88	0xbaef7caa	-0.0018271406
89	0x3db96a22	0.09053446
90	0x3daa6238	0.08319515
91	0x3de5203f	0.11187791
92	0x3cf2dfbf	0.029647706
93	0x3d6cdb67	0.057826426
94	0xbd23f074	-0.040024236
95	0x3d833283	0.06406119
96	0x3d98be82	0.074582115
97	0x3dae3b4a	0.08507402
98	0xbd51676c	-0.05112402
99	0xbdab9c3b	-0.08379408
100	0x3d0f0c9f	0.034924146
101	0x3daa3138	0.08310169
102	0x3dd919c4	0.106006175
103	0xbd1ccbb0	-0.03828019
104	0x3dbc8935	0.09205858
105	0x3d968874	0.07350245
106	0x3d41309a	0.04716549
107	0x3d392ac3	0.045206796
108	0x3dc91f87	0.098204665
109	0x3bbe344f	0.0058045755
110	0xbdca0410	-0.09864056
111	0x3da1aba1	0.07894064
112	0xbe0ff2e9	-0.14057507
113	0x3d255a69	0.040369425
114	0x3db93dbd	0.09044979
115	0xbc3de465	-0.011590098
116	0xbd888657	-0.06666248
117	0xbca1a07f	-0.01972985
118	0x3cc2f9c8	0.023800746
119	0xbdd5ea5d	-0.10445092
120	0xbd879c06	-0.06621556
121	0xbd66c645	-0.05634143
122	0x3def5a75	0.11687175
123	0x3bcd75b9	0.006270137
124	0x3da621ba	0.081119016
125	0xbdcb838d	-0.09937201
126	0xbdc272c9	-0.0949455
127	0xbd945b79	-0.072440095
128	0x3cf9915b	0.030464819
129	0xbc579b66	-0.0131596085
130	0xbd45b35b	-0.04826675
131	0x3d99f655	0.07517687
132	0x3c84a35d	0.016191179
133	0x3e00b137	0.12567602
134	0x3d8bc707	0.06825071
135	0x3da12a72	0.07869424
136	0x3c8f7a2d	0.017514313
137	0x3daeee5c	0.08541557
138	0x3cd48680	0.02594304
139	0xbd809bad	-0.06279693
140	0xbce01e8f	-0.027358321
141	0xbdfbc886	-0.12294106
142	0xbdd30ba8	-0.10304958
143	0xbdd20f40	-0.10256815
144	0xbd090ce5	-0.033459563
145	0x3d4e943e	0.050434344
146	0xbd1e19bd	-0.038598765
147	0x3d101d2d	0.035184074
148	0xbddd3dac	-0.108027786
149	0x3e068e33	0.13140182
150	0x3acfed3e	0.001586355
151	0xbdbbc623	-0.09168651
152	0x3d91252c	0.07087168
153	0xbd10c272	-0.035341688
154	0xbcf8180a	-0.0302849
155	0xbd5a4fb8	-0.053298682
156	0x3dcf9f79	0.10137839
157	0x3db2f0c6	0.0873733
158	0x3caadd23	0.0208574
159	0x3da70eb1	0.08157099
160	0xbdd20ba0	-0.102561235
161	0xbc9d87fa	-0.019229878
162	0x3d435a6e	0.047693662
163	0xbd99b29b	-0.075047694
164	0xbdc97075	-0.098359026
165	0xbc6a45fd	-0.014298913
166	0x3c92f787	0.017940296
167	0x3d8a69be	0.0675845
168	0xbdcf5245	-0.101231135
169	0xbd1863a2	-0.037204392
170	0x3b6698c7	0.0035186277
171	0x3ba9c11a	0.00518049
172	0xbd9b81de	-0.075931296
173	0xbc559720	-0.013036519
174	0xbd38d0e7	-0.0451211
175	0x3d09b03f	0.033615347
176	0xbd27936f	-0.040912088
177	0x3dbd7f12	0.09252752
178	0x3cad0e7a	0.021125067
179	0x3b1855d5	0.002324452
180	0xbbad0e0e	-0.0052812165
181	0xbd71b255	-0.05900796
182	0x3dad53a8	0.08463222
183	0xbbef7a91	-0.007308312
184	0xbd0db3cc	-0.034595296
185	0x3d8baf99	0.06820602
186	0x3d57b19c	0.052659616
187	0x3ca681df	0.0203256
188	0xbde6317e	-0.11239909
189	0x3d76b240	0.060228586
190	0xbdbcfbab	-0.09227689
191	0xbd84e5ef	-0.06489169
192	0xbabc41e7	-0.0014362902
193	0xbdc120d1	-0.09430087
194	0xbc7db6fa	-0.01548552
195	0xbdfb41e1	-0.12268425
196	0xbc9a2188	-0.018814817
197	0x3dde8168	0.10864526
198	0xbd90c518	-0.07068843
199	0xbd927310	-0.07150853
200	0xbd93f644	-0.07224706
201	0xbdddc812	-0.10829176
202	0xbcf483b2	-0.029847953
203	0xbd222252	-0.03958351
204	0x3d0eabb5	0.03483172
205	0x3b8bd45f	0.00426726
206	0x3c8e2b58	0.017354652
207	0x3d6a3077	0.057175126
208	0xba123114	-0.0005576771
209	0xbc039a09	-0.00803233
210	0xbcb95768	-0.022624686
211	0x3c48492b	0.012224476
212	0x3d9db832	0.07701148
213	0xbd2edda3	-0.042691838
214	0xbdcc8838	-0.09986919
215	0xbd80ca12	-0.06288542
216	0x3d18065b	0.037115436
217	0xbdbafc8d	-0.091302015
218	0x3d92b448	0.07163292
219	0xbd7f63fd	-0.062351216
220	0xbd3aa8db	-0.04557119
221	0x3d6d1940	0.05788541
222	0x3d80f7a4	0.06297234
223	0xbce8f18e	-0.028435495
224	0x3cb3e8ed	0.021961654
225	0x3d6c3dbd	0.057676066
226	0x3cceb744	0.025233872
227	0x3da6a689	0.08137233
228	0xbd665050	-0.056228936
229	0x3cfea4b5	0.031084398
230	0x3c86bb36	0.016446691
231	0x3d98e168	0.07464868
232	0xbda150ba	-0.078767255
233	0xbd70cf52	-0.058791466
234	0x3d8176a3	0.06321456
235	0x3ce8087c	0.028324358
236	0x3cedfd9e	0.029051598
237	0xbd6f50af	-0.058426555
238	0x3ce4ab71	0.02791378
239	0x3d87c10f	0.0662862
240	0xbddf4839	-0.10902447
241	0xbd645849	-0.055748258
242	0xbd43653f	-0.047703978
243	0x3d707613	0.058706354
244	0xb9a53fc1	-0.00031518753
245	0x3dc9eef2	0.09860028
246	0x3da94225	0.08264569
247	0x3db50000	0.088378906
248	0x3dc61842	0.096725956
249	0xbd28f092	-0.04124505
250	0xbd3205c2	-0.043462522
251	0xbb5be717	-0.0033554488
252	0xbda97b9d	-0.082755305
253	0xbd5e2e8f	-0.05424362
254	0x3c96091f	0.018314896
255	0x3cd10ff0	0.025520295

rnn.weight_hh_l1 f4 [64, 64]
0	0x3d989b7d	0.07451532
1	0xbc44d21e	-0.0120129865
2	0x3dbf889a	0.093522266
3	0xbd25db5d	-0.040492404
4	0x3c09d83f	0.0084133735
5	0x3c6fe272	0.014641391
6	0xbd0196d7	-0.031637993
7	0x3d43a10f	0.04776102
8	0x3d8ab2a5	0.06772355
9	0x3d1a2177	0.03762957
10	0x3d192d41	0.037396673
11	0x3d5be862	0.053688414
12	0xbdd9ad3c	-0.10628745
13	0x3cd246d9	0.025668548
14	0x3dceefa5	0.10104302
15	0xbcf26624	-0.02958972
16	0xbde19253	-0.11014237
17	0xbdd82b43	-0.105551265
18	0x3de6890a	0.11256607
19	0xbd44a9f6	-0.04801365
20	0x3d7ea87c	0.062172398
21	0x3e050160	0.12988806
22	0x3d3548d2	0.0442589
23	0x3df12739	0.11775059
24	0xbd271bd4	-0.040798023
25	0x3bc338ec	0.0059577134
26	0x3cfe6113	0.031052148
27	0x3bad2db2	0.0052849883
28	0x3dff8454	0.124764115
29	0xbd9ff267	-0.078099065
30	0xbd82a930	-0.06379926
31	0xbd8cb058	-0.068695724
32	0x3cfe89e0	0.031071603
33	0x3da1cb9e	0.07900165
34	0x3dabdd7f	0.083918564
35	0x3de7f4ee	0.113260135
36	0xbdd487c7	-0.1037746
37	0x3d73c6ea	0.05951587
38	0xbde6d095	-0.112702526
39	0xbd9d2afe	-0.07674216
40	0x3dea53de	0.11441778
41	0x3d60ed17	0.054913606
42	0x3de949c8	0.11391026
43	0x3d6c4b9f	0.057689305
44	0x3d53d273	0.051714372
45	0xbdb8f046	-0.090302035
46	0xbdb8aed3	-0.0901772
47	0x3dd19bc3	0.10234787
48	0xbd4c69c5	-0.049905557
49	0x3d81da2c	0.06340441
50	0x3caa46ef	0.020785777
51	0xbd41944e	-0.047260575
52	0x3de68c04	0.112571746
53	0xbd71b290	-0.05900818
54	0x3da74aa5	0.08168534
55	0xbdec0781	-0.11524869
56	0x3d25aa1b	0.04044543
57	0xbd45a245	-0.048250455
58	0xbdc98acf	-0.09840929
59	0x3d90f100	0.07077217
60	0x3ca21aab	0.019788107
61	0xbd932576	-0.071848795
62	0x3b435e5a	0.0029810877
63	0x3d88f328	0.066870034
64	0x3d47acc6	0.048748754
65	0x3da5f5be	0.08103512
66	0x3d916b03	0.07100489
67	0x3d9751fb	0.073886834
68	0x3da62dcc	0.08114204
69	0x3d5dcfd4	0.05415328
70	0x3dae1db0	0.08501756
71	0xbd083996	-0.033258043
72	0x3d0fe8e0	0.035134196
73	0xbdb023e9	-0.08600599
74	0xbda57960	-0.08079791
75	0x3dddb968	0.10826379
76	0xbd89e8ca	-0.06733854
77	0x3d5b0f10	0.05348116
78	0x3db60e2a	0.0888942
79	0xbd245f33	-0.04012985
80	0x3da0ea33	0.0785717
81	0x3c93b6f7	0.01803158
82	0x3c9e5d08	0.01933147
83	0xbd7b4714	-0.061347082
84	0x3d1b3748	0.037894517
85	0x3da9e458	0.08295506
86	0x3c0c41bd	0.008560595
87	0xbb5b1ffe	-0.0033435817
88	0xbc8cd618	-0.017191932
89	0xbc8582f0	-0.016297787
90	0xbd7026ab	-0.058630627
91	0xbe089488	-0.1333791
92	0x3d76320e	0.06010633
93	0xbd798fb6	-0.06092807
94	0xbd8f75bd	-0.07004879
95	0xbc128da1	-0.0089449
96	0x3cfb4343	0.030671721
97	0x3dae20bf	0.085023396
98	0x3dcc016f	0.09961211
99	0xbb451c17	-0.0030076557
100	0xbd3650bb	-0.044510584
101	0x3d6b2ad7	0.057413902
102	0x3d870c8d	0.06594191
103	0xbd95fad7	-0.073232345
104	0xbd0dcf3e	-0.03462147
105	0xbdf233d4	-0.11826292
106	0x3c205b9e	0.009787468
107	0x3ca28d72	0.019842837
108	0x3d613abe	0.05498766
109	0xbdefa7a1	-0.117018946
110	0xbd836d01	-0.06417275
111	0xbddb0d31	-0.106958754
112	0x3d88d284	0.06680778
113	0x3bc8a7ab	0.006123503
114	0xbd8511ac	-0.06497511
115	0x3dda1ed1	0.10650409
116	0x3d5c11bd	0.053727854
117	0xbd0d7a12	-0.034540243
118	0xbd0ef2ad	-0.034899402
119	0x3d9eb6ef	0.077497356
120	0x3c2a62dc	0.0103995465
121	0x3e006fac	0.125426
122	0x3d02c9d6	0.031930767
123	0x3d3731bf	0.044725176
124	0xbdcb0260	-0.09912562
125	0xbda540e0	-0.080690145
126	0x3d57fe0c	0.052732512
127	0x3d5d95eb	0.05409805
128	0x3d461fbd	0.04837011
129	0x3d319b3b	0.04336093
130	0x3c10e0bd	0.008842644
131	0xbd7a67fc	-0.061134323
132	0x3dca239d	0.09870074
133	0x3de1736c	0.11008343
134	0xbdbaf961	-0.091295965
135	0xbde1bc84	-0.110222846
136	0x3dcff641	0.10154391
137	0xbd8ac6ef	-0.06776225
138	0xbde7f2e6	-0.11325626
139	0xbd1e3441	-0.038624052
140	0x3c291f25	0.010322367
141	0xbcb3b22f	-0.02193555
142	0xbd9cdd5a	-0.07659407
143	0x3de16768	0.11006051
144	0x3c8ac580	0.016939878
145	0xbdb54dc3	-0.088527225
146	0xbd87d05a	-0.06631537
147	0x3d753409	0.059864078
148	0x3cc19b79	0.023633705
149	0x3c9dec26	0.019277643
150	0xbd0bf772	-0.03417153
151	0xbd881c09	-0.06645972
152	0xbc959635	-0.0182601
153	0x3d708013	0.05871589
154	0x3cd784f2	0.02630851
155	0x3c8f8938	0.017521486
156	0xbc80ff88	-0.015746847
157	0xbdc8eaf8	-0.09810442
158	0x3dc618dd	0.09672711
159	0x3d877a74	0.06615153
160	0x3d44af57	0.04801878
161	0x3d27607f	0.04086351
162	0xbcd37ba9	-0.025815802
163	0x3d4b6cb4	0.049664214
164	0x3cfc762a	0.030818064
165	0x3dfa3426	0.12216978
166	0xbd65a70c	-0.05606751
167	0xbc56d6fa	-0.013112778
168	0x3e0204fe	0.12697217
169	0x3cda6b21	0.026662411
170	0x3d8a9a0e	0.06767665
171	0x3de1f026	0.11032133
172	0xbd86dce6	-0.06585102
173	0x3d957023	0.07296779
174	0x3de6f11e	0.11276458
175	0xbde6fa51	-0.11278213
176	0x3c536213	0.012901801
177	0x3da2cfa1	0.07949758
178	0x3daf25b4	0.08552113
179	0xbdd27f92	-0.10278238
180	0x3d455b9f	0.04818308
181	0x3db804c1	0.08985282
182	0xbd42269b	-0.0474001
183	0xbc44ed87	-0.012019522
184	0x3c833ea1	0.016021075
185	0x3cd352c1	0.025796296
186	0x3d6abdaa	0.057309784
187	0x3db0a8b6	0.08625929
188	0x3c6ed3af	0.0145768365
189	0x3c595b32	0.013266372
190	0xbd4c0d89	-0.049817596
191	0xbd48d4fb	-0.04903124
192	0x3db50e3f	0.08840608
193	0xbc5919cb	-0.013250778
194	0xbd16ee45	-0.036848325
195	0x3dab10e6	0.083528325
196	0xbd2eebac	-0.042705223
197	0x3dcfe539	0.101511426
198	0x3dfcf870	0.12352073
199	0x3d3f63b5	0.046725947
200	0xbdaa152a	-0.08304818
201	0xbd34f87d	-0.04418229
202	0xbd9cffd5	-0.076659836
203	0x3e064a0a	0.13114181
204	0x3e0373ef	0.12837194
205	0xbd0e6e7a	-0.034773327
206	0x3cb2a587	0.021807445
207	0xbd2316c9	-0.03981665
208	0x3bdeba46	0.006797108
209	0x3d71f081	0.059067253
210	0x3dd278f8	0.10276979
211	0x3c24b476	0.010052791
212	0x3cb4b28c	0.022057794
213	0xbdd83621	-0.10557199
214	0xbdf3ac5c	-0.11898109
215	0x3d999181	0.07498456
216	0x3dd97bc0	0.106193066
217	0xbd7192ee	-0.058978014
218	0x3decc314	0.11560646
219	0xbcbae2b1	-0.022813173
220	0x3d49d15a	0.04927192
221	0xbd176938	-0.03696558
222	0xbd048310	-0.032351553
223	0x3d98a394	0.07453075
224	0x3da69303	0.08133509
225	0x3d49183b	0.049095374
226	0xbba9dbfa	-0.005183694
227	0x3cba7a1e	0.022763308
228	0xbc26e6b1	-0.010186837
229	0xbd84bfff	-0.06481933
230	0xbcade139	-0.021225559
231	0x3d327be0	0.043575168
232	0xbca2e09d	-0.019882495
233	0xbdc66e80	-0.09689045
234	0xbca8b47b	-0.020593872
235	0x3c81b769	0.015834527
236	0xbdf8f86b	-0.12156757
237	0x3d24f842	0.04027582
238	0x3cfc0a10	0.030766517
239	0xbd9f5b56	-0.07781093
240	0xbd837ea1	-0.06420637
241	0xbdf02e38	-0.117275655
242	0xbd153262	-0.036425002
243	0xbd87bf42	-0.066282764
244	0x3d24e265	0.04025497
245	0x37c382a8	2.3306653e-05
246	0x3da9709f	0.08273434
247	0x3d80ec5e	0.062950835
248	0x3de00349	0.109381266
249	0xbd2b46d3	-0.04181559
250	0xbd8fcafb	-0.07021137
251	0x3cbbe501	0.022936346
252	0x3ca20c59	0.019781278
253	0x3d91c5e2	0.07117821
254	0xbd4f29b8	-0.050576895
255	0x3d06905e	0.032852523

rnn.bias_ih_l1 f4 [64]
0	0x3dcd2b6e	0.10018049
1	0xbda41971	-0.08012665
2	0x3d551563	0.05202235
3	0x3d6c6510	0.05771357
4	0xbdcacc85	-0.0990229
5	0xbd848fd0	-0.064727426
6	0x3cd715c3	0.026255494
7	0x3c0a6c8d	0.008448732
8	0x3d7344e4	0.05939187
9	0x3dd10161	0.10205341
10	0xbd113ab5	-0.035456378
11	0x3dd78b09	0.10524566
12	0x3d7a51db	0.06111322
13	0xb9e520b6	-0.00043702655
14	0xbd923f0d	-0.07140932
15	0xbc83f53f	-0.016108153
16	0xbdbbd954	-0.091723114
17	0xbb3164b4	-0.002706808
18	0x3d4c54f0	0.04988569
19	0x3d7e8e95	0.062147696
20	0xbd946257	-0.07245319
21	0xbd946ce0	-0.07247329
22	0xbd730e5a	-0.05933986
23	0xbcaf7a3d	-0.021420592
24	0x3cd30dce	0.025763419
25	0xbda7480c	-0.08168039
26	0xbd548287	-0.051882293
27	0x3d0da1b5	0.034578044
28	0xbd6d2c37	-0.057903495
29	0xbc1c8d72	-0.009555208
30	0xbd50f7ee	-0.051017694
31	0xbe03baa5	-0.12864168
32	0xbda56a0e	-0.08076869
33	0xbcb2440f	-0.021760968
34	0x3dea13c4	0.11429551
35	0x3d670d39	0.056409094
36	0x3dec337e	0.11533259
37	0x3da59420	0.08084893
38	0xbd7bd4a2	-0.06148208
39	0x3d85caa2	0.0653279
40	0xbc1251cb	-0.008930634
41	0x3de7ad53	0.11312356
42	0xbcc09930	-0.023510545
43	0x3cd93aa8	0.026517227
44	0x3d635b6c	0.05550711
45	0x3cf65475	0.03006957
46	0x3e0385f9	0.12844075
47	0xbdec7328	-0.11545402
48	0xbd7c819a	-0.061647035
49	0xbe042823	-0.12905936
50	0xba8b4ba2	-0.0010627399
51	0x3de2f4ba	0.11081834
52	0xbd8cb082	-0.06869604
53	0x3ce4017f	0.027832745
54	0xbc01e164	-0.0079272725
55	0xbdc739a0	-0.09727788
56	0x3c288b3d	0.010287103
57	0xbdbd6a5b	-0.09248801
58	0x3d6b5a3b	0.057459097
59	0xbdca0067	-0.09863358
60	0xbd6c9faa	-0.057769455
61	0x3d1f667d	0.0389161
62	0xbdaabbbf	-0.08336591
63	0x3dfee04f	0.12445127

rnn.bias_hh_l1 f4 [64]
0	0xbe007975	-0.12546332
1	0x3d00dec2	0.03146244
2	0x3d62b53f	0.05534863
3	0xbd88e0d7	-0.0668351
4	0x3cadf76c	0.021236144
5	0x3d49988c	0.049217746
6	0x3d12307c	0.03569077
7	0x3d91871a	0.07105847
8	0x3d67c02c	0.056579754
9	0xbdfc70c8	-0.12326199
10	0xbd3fa96d	-0.046792436
11	0x3da7a2a5	0.08185319
12	0xbdeabf49	-0.11462266
13	0xbb28791e	-0.0025706957
14	0x3d7368bf	0.059426066
15	0x3d13dcf8	0.036099404
16	0xbd89e62e	-0.067333564
17	0x3cb07305	0.02153922
18	0x3c1cbe35	0.009566833
19	0xbcf07cbd	-0.029356355
20	0x3db045b9	0.086070485
21	0xbd5f3ca2	-0.054501183
22	0xbdfe4b77	-0.124167375
23	0x3d48f5be	0.049062483
24	0x3d5d3be5	0.054012198
25	0xbd29c2a5	-0.041445393
26	0x3db0d47d	0.08634279
27	0xbd927b1a	-0.07152386
28	0x3d92bda5	0.07165078
29	0x3dceb104	0.10092357
30	0xbd89b9c2	-0.067248836
31	0x3d4b5ead	0.049650837
32	0x3dd390a4	0.103303224
33	0x3ceaf2c1	0.028680207
34	0xbcf7551b	-0.030191949
35	0xbda43e84	-0.080197364
36	0x3e0154bc	0.1262998
37	0x3cc6f2ed	0.024285758
38	0xbc9a7a04	-0.01885701
39	0xbd25384b	-0.04033689
40	0xbc3dd61e	-0.011586694
41	0x3dd90005	0.10595707
42	0x3cd80800	0.026371002
43	0xbbb86bed	-0.0056281
44	0xbd6b74f3	-0.05748458
45	0x3d420d05	0.047375698
46	0xbd991797	-0.074752025
47	0xbc419d8f	-0.01181735
48	0x3dd7a8a6	0.10530214
49	0xbd3248c3	-0.043526422
50	0x3d05f46b	0.0327038
51	0xbdeebacc	-0.116567224
52	0xbdd014f0	-0.101602435
53	0xbd9e4881	-0.07728673
54	0x3dbd2f0d	0.0923749
55	0xbd8260ef	-0.06366145
56	0x3d203f1d	0.03912269
57	0xbdcbba2b	-0.09947618
58	0x3d759ba4	0.059962884
59	0xbdc9e249	-0.098576136
60	0x3ddcb91e	0.10777496
61	0xbd54f29a	-0.051989175
62	0x3da765af	0.081736915
63	0xbd5f6ad3	-0.054545235

fc.weight f4 [1, 64]
0	0xbe004e28	-0.12529814
1	0xbdd4da46	-0.10393195
2	0x3de20fc5	0.11038164
3	0x3cefe4c2	0.029283885
4	0x3d38cc17	0.04511651
5	0x3d5f0f74	0.054458097
6	0xbd4f1443	-0.050556432
7	0xbd84b472	-0.0647973
8	0xbded2111	-0.115785725
9	0xba1431af	-0.00056531554
10	0x3ddf3687	0.10899072
11	0xbde2839f	-0.11060261
12	0xbcb5d6f6	-0.022197228
13	0x3db1f77c	0.08689782
14	0xbc9f9be1	-0.019483509
15	0xbd79cf5a	-0.06098876
16	0xbddf8dd7	-0.10915726
17	0x3c934a98	0.017979905
18	0xbc742538	-0.014901452
19	0x3dc30a43	0.09523442
20	0x3ceaf696	0.028682034
21	0x3d2daded	0.042402197
22	0xbd9f3461	-0.07773662
23	0x3e05d06c	0.13067788
24	0x3d7eb65a	0.062185623
25	0xbc35350b	-0.01106001
26	0xbd891a1b	-0.06694432
27	0xbdd0bd7e	-0.10192393
28	0x3db51457	0.0884177
29	0x3d7f8ac9	0.062388215
30	0xbdfb84c9	-0.12281186
31	0xbdc5ee16	-0.09664552
32	0x3d244799	0.040107343
33	0xbb12ca27	-0.0022398324
34	0x3da9bd46	0.08288054
35	0xbde4df19	-0.11175365
36	0x3d8e10b7	0.06936782
37	0x3732bc0c	1.065341e-05
38	0xbdf8eb80	-0.12154293
39	0xbd904ed3	-0.070462845
40	0x3d925a22	0.07146098
41	0xbd91434c	-0.07092914
42	0xbd12e515	-0.035863
43	0xbbda20f7	-0.0066567617
44	0xbde80734	-0.11329499
45	0x3d56a6ff	0.052405354
46	0x3dc0d0d4	0.09414831
47	0xbce0c412	-0.027437244
48	0xbd65599d	-0.055993665
49	0xbdf248c6	-0.11830287
50	0xbc158e08	-0.009128101
51	0xbdce4f8c	-0.10073766
52	0xbc1c7736	-0.0095499065
53	0x3cb6fb6d	0.022336686
54	0x3d75d51d	0.060017694
55	0xbd168a45	-0.036752958
56	0xbd9bfd84	-0.07616714
57	0x3dbdba71	0.092640765
58	0xbd5dbabf	-0.054133173
59	0xbdf95ab6	-0.12175505
60	0x3daf76a1	0.085675485
61	0xbd3e76e3	-0.046500098
62	0x3dbf14d7	0.09330147
63	0x3d4e0a74	0.050302938
