Vaishnavi (1).pt (torch, 54356 bytes, 9 tensors)

rnn.weight_ih_l0 f4 [64, 1]
000000 4a 36 c0 bc 57 28 64 bd 56 ef 9d 3d d3 df 98 bc
       -0.023463387 -0.055702534 0.07711665 -0.018661415
000010 e2 de e6 3d 99 ee 8c bc 39 11 cf bd 4b 3d 4c 3d
       0.1127298 -0.017203616 -0.10110707 0.04986314
000020 c1 e5 70 bd 15 61 e5 3d 47 0c b0 3d a7 1f 13 be
       -0.05881286 0.112001576 0.08596092 -0.14367543
000030 16 19 59 bd 20 a3 ce bd 69 22 9f bd 9f a2 d5 bd
       -0.05300244 -0.100897074 -0.07770235 -0.10431408
000040 d2 11 49 bd 2b 70 d7 3d ae d0 ab bd 4c ba b5 3d
       -0.04908926 0.10519441 -0.08389412 0.08873424
000050 8a 08 f8 3d c6 b1 4a 3d 9a 98 d5 bc 6c e1 df bc
       0.12111004 0.049485944 -0.026073743 -0.02732917
000060 28 af c1 3d 5c e0 0f 3d cb 81 20 3e 4e 1e 3d bd
       0.094572365 0.035126075 0.15674512 -0.04617148
000070 9c a0 03 3d ad c3 64 3d 72 5f 11 be ba eb 01 3e
       0.03213559 0.055850673 -0.14196566 0.12687579
000080 e9 ac b9 3d d4 fe 0b 3e 11 de ab bd 97 40 bd bd
       0.09066183 0.13671428 -0.08391965 -0.09240835
000090 93 49 0c 3e d5 f3 c1 3a 06 6e 05 3e 9f 7b 62 3d
       0.13699941 0.0014797399 0.13030252 0.055293676
0000a0 b6 0c f5 bc 30 6f 82 3d ec 42 e5 bc 7d 20 b6 bc
       -0.029913288 0.063688636 -0.027986012 -0.022232288
0000b0 94 08 5e 3d 70 22 57 3d 91 87 bd 3d e8 c7 cb bd
       0.0542074 0.052523077 0.09254373 -0.099502385
0000c0 26 c0 a9 bc 1e 67 ae bd 0d 2d 6d bd 1c ca 8b 3c
       -0.020721506 -0.08515762 -0.057904292 0.017064147
0000d0 45 ed e8 ba 94 ab a4 bb 71 39 e3 3d 30 9f 93 bd
       -0.0017770907 -0.0050253365 0.110949405 -0.07208097
0000e0 17 98 0e be 0d ca 89 3b 1e 65 21 3e 50 27 34 3d
       -0.13925205 0.0042049945 0.1576123 0.043982804
0000f0 02 40 7b 3c 0c ff dc bd 1d d0 b3 bc 80 72 e3 3d
       0.015335085 -0.10790834 -0.021949822 0.111058235

rnn.weight_hh_l0 f4 [64, 64]
000000 8c 8b bb bc fd 86 fc 3b fd 90 f6 3d ad f8 ad bd
       -0.02289369 0.0077065215 0.12039373 -0.08494697
000010 07 ef 37 3d 78 ac 80 3d 03 d1 63 3d f5 f4 16 bd
       0.04490569 0.06282896 0.05561925 -0.036854703
000020 e5 8d ab 3d 9d 34 51 bd 14 59 b2 3d 64 ad 88 bb
       0.083766736 -0.051075567 0.087083966 -0.0041710604
000030 31 3f cb bb 47 25 55 3d de 19 b2 3d 1a c0 5c 3d
       -0.0062026014 0.052037504 0.0869634 0.05389414
000040 f9 ee 52 3d af 31 89 bd 95 f0 b8 bd 0e 73 fa bd
       0.051497433 -0.066989295 -0.090302624 -0.12228976
000050 2d 5a 9e bd ac c7 3b 3d 4c 23 d4 bc b0 41 78 bd
       -0.077320434 0.04584472 -0.025895737 -0.06060952
000060 03 39 9a 3c 1f ab 1b bc 66 e0 ac bb 54 48 96 3d
       0.018826013 -0.009501248 -0.005275774 0.07338014
000070 56 da ad bd 01 b2 70 bd 2a f4 39 3d 58 35 9a 3d
       -0.0848891 -0.058763508 0.04539887 0.07529706
000080 19 fb d4 bc 28 6a c9 bd 3d 5e 25 3c 74 7f b8 3d
       -0.025998639 -0.09834701 0.010093269 0.09008685
000090 1d 26 d5 bd 16 ae b6 3d 40 1c 9b 3d 75 fe 95 3d
       -0.1040766 0.08919923 0.07573748 0.073239245
0000a0 ac fb b4 bd 5b c2 ac bd 2c 70 c9 bd f5 a1 10 bd
       -0.08837065 -0.08435508 -0.09835848 -0.035310704
0000b0 e1 b4 6d 3d f0 20 96 3c 40 99 ac bc f0 6b 62 3d
       0.058033828 0.018326253 -0.021069169 0.05527872
0000c0 b4 4c f1 ba 7d 92 98 bd 32 46 3a 3d 02 a3 ef bd
       -0.00184097 -0.074498154 0.0454771 -0.11701013
0000d0 c0 5e 9d bd 70 34 f7 bd e6 3c d8 3a 35 36 9f bd
       -0.07684088 -0.120705485 0.0016497641 -0.07774011
0000e0 c1 26 b0 bd 55 9e 98 bd 92 0b 27 39 ca d4 a8 bd
       -0.08601142 -0.074520744 0.00015930671 -0.08243711
0000f0 a1 b2 e7 3b f3 61 8f bd 3e 9d 8b 3d 3c 3f 39 bc
       0.007070855 -0.07001104 0.06817101 -0.01130658
000100 bf d9 a4 3d 9b d1 97 bd b4 42 97 bd 9f c5 65 bd
       0.08049344 -0.07413026 -0.073857695 -0.05609667
000110 ed 04 db bd 5f e5 7c bc 92 ce ba bd 8b f1 fc bd
       -0.10694299 -0.015435546 -0.091214314 -0.12350758
000120 76 1f 3e 3d 06 c0 a1 bd fc 55 76 bd ea 1b 3c 3c
       0.046416722 -0.07897954 -0.060140595 0.011481265
000130 b9 10 04 bd e5 e9 15 3c ac e5 bb 3d 00 97 e3 bd
       -0.03224251 0.009150003 0.09174666 -0.11112785
000140 28 c1 c9 bd 30 f8 b7 3d 5a e7 2a bd 35 25 47 3b
       -0.09851295 0.08982885 -0.04172454 0.0030387167
000150 af 59 07 3e 00 66 d8 bd c6 12 2d 3c 38 b2 83 3d
       0.13217805 -0.1056633 0.010563558 0.06430477
000160 ca 9b 05 be b3 de c0 bd 9e 30 75 3c d1 34 f4 bc
       -0.1304771 -0.094174765 0.0149652045 -0.029810341
000170 6f 45 c3 3d 02 09 aa bd 1a 38 09 b9 f8 1b fe 3d
       0.09534728 -0.08302499 -0.00013086238 0.12407678
000180 ca c3 fe bd 12 76 99 bd 7e 9a c3 3b f4 80 0c bb
       -0.124396876 -0.07493223 0.0059693446 -0.0021439167
000190 c2 b3 8d 3d 60 a0 00 3e 03 45 81 3d c6 93 80 bc
       0.06919052 0.12561178 0.06311991 -0.015695464
0001a0 65 31 c5 bc 65 50 02 be dd 70 7d bd 84 ee d3 3d
       -0.024071405 -0.1272598 -0.061875213 0.103482276
0001b0 d3 99 a8 bd cc 5c bf 3d eb 5e b0 bd ca 50 e9 bd
       -0.08232465 0.093438715 -0.08611854 -0.113923624
0001c0 54 75 9f bd a2 35 b0 bd a3 42 3b 3c df dd 51 bc
       -0.077860504 -0.0860398 0.011429462 -0.012809246
0001d0 b0 d7 c1 3c 49 42 a7 3d 3e 55 61 3d 71 b2 cb 3d
       0.023662418 0.0816694 0.055012934 0.09946144
0001e0 07 08 c2 bd 83 f1 02 be 89 e3 7b bc 79 35 b0 3d
       -0.09474187 -0.12787442 -0.015374073 0.08603949
0001f0 12 e1 4b 3d 9c 76 dc bd 3b 3c 08 be 49 0c 3a 3d
       0.04977519 -0.107648104 -0.13304226 0.045421872
000200 be 15 77 3d cd 96 73 bb 30 bb c3 bd 31 82 50 bd
       0.06032347 -0.0037168742 -0.095571876 -0.05090541
000210 b2 f5 93 bd ea ac f9 3d ba 95 2b 3c 15 db 94 bd
       -0.07224597 0.12191184 0.010472709 -0.07268349
000220 38 1f 55 bd 94 16 0d ba a2 29 2e 3d bd 15 13 bd
       -0.052031726 -0.00053820875 0.042520173 -0.035909403
000230 af 3f 85 bb 2c 71 60 3d b5 6c eb bd 35 d0 f6 bd
       -0.0040664296 0.05479543 -0.114953436 -0.12051431
000240 8d 36 10 3c d7 9d 00 3d e6 bc 3d 3d 15 57 e8 bc
       0.008802068 0.031400528 0.046322726 -0.028361836
000250 30 4c b8 3d 8f 7b 89 bd 93 2a a6 3b e6 e3 3e 3c
       0.089989066 -0.0671302 0.005070993 0.011651015
000260 00 46 79 bb 70 82 3e 3d a3 e8 ab 3d d6 9a 0d be
       -0.0038036108 0.046511114 0.08393981 -0.13828596
000270 1c 35 ff 3d c6 d9 d0 3d b9 b4 b6 3d 18 2c 96 bd
       0.12461302 0.10197787 0.08921189 -0.07332629
000280 70 56 dd bd 67 dc 89 bd a1 4e 77 3d 6a 27 01 be
       -0.10807502 -0.067314915 0.06037772 -0.12612692
000290 9e 2c 94 3d f3 8f 30 bc 4b f5 62 3d a8 ef b1 3d
       0.072350726 -0.010776508 0.05540971 0.08688289
0002a0 04 00 50 bd bb 1b 6e bd 1b d1 ce bd d0 7f df bd
       -0.050781265 -0.058131915 -0.100984775 -0.1091305
0002b0 f9 d9 71 3d b0 80 fc bc ca 3c e5 3d 75 aa be bd
       0.059045766 -0.030823082 0.11193235 -0.09309856
0002c0 92 93 7e 3c 24 7d 92 bd 73 9d bb 3c e0 6c a4 3d
       0.015538113 -0.07152775 0.022902226 0.08028579
0002d0 8a e3 dc 3d 02 cc ca bd 12 6e 5d bd 11 80 f3 3c
       0.10785587 -0.09902193 -0.05406005 0.029724153
0002e0 ea db 69 bd f1 53 86 3c f2 ce af 3d 47 ba 5f bd
       -0.057094492 0.016397448 0.085843936 -0.054621007
0002f0 48 98 e0 bd 32 e3 0b be a7 90 9a bd f8 01 e2 3d
       -0.10966545 -0.13660887 -0.075471215 0.11035532
000300 23 16 10 bc 34 e2 5d 3d 90 e2 95 3d 69 27 46 3d
       -0.00879434 0.054170802 0.07318604 0.04837743
000310 c6 d9 09 3e 8b ba 99 bd 37 04 52 3d a2 4b a6 bd
       0.1346198 -0.075062834 0.05127355 -0.081198946
000320 14 ef 55 bc e9 22 da bc bd 5f dd 3b a5 c6 87 3d
       -0.013057489 -0.026627975 0.0067557977 0.06629685
000330 71 08 8f bd 74 4d 5e 3d 29 17 f2 3d 0d 87 99 3d
       -0.06984032 0.054273084 0.11820824 0.07496462
000340 50 94 84 3d 8d 9b 8b 3d 2d 04 99 bd 6b bc 28 3d
       0.06473601 0.06816778 -0.074714996 0.041195314
000350 6f a2 b7 bd b4 31 bd bd d1 6c cc bd 53 fd bc bd
       -0.089665286 -0.09237996 -0.099816926 -0.09228005
000360 6b 26 9f 3d 28 35 00 3e 4f cb b1 bd 94 00 2e 3d
       0.077709995 0.12520278 -0.08681356 0.04248102
000370 3e f3 8f bc 91 ad ec 3c fc 3c 86 bc cc b1 f4 3d
       -0.017572042 0.028891357 -0.016386501 0.119479746
000380 97 5f 87 bd ba d3 f7 3c 7e c4 a7 bd 5d c5 f6 bd
       -0.06610029 0.030252326 -0.08191775 -0.12049363
000390 5f 35 01 3e 71 8e 9a bd 48 63 2b bd 84 31 3b 3d
       0.12618016 -0.075467 -0.04184273 0.04570152
0003a0 f5 90 ff bd c8 cf 6b 3d 33 0d 7e 3d bd ea 57 3d
       -0.1247882 0.057571203 0.062024307 0.0527141
0003b0 ce f6 c1 3d e5 71 9d 3d d1 55 ee bd 7d c4 89 3d
       0.094709024 0.07687739 -0.11637462 0.0672693
0003c0 b7 f9 13 bd 9f 91 9b 3d fb 6f 1b bd 61 49 eb 3c
       -0.03612682 0.075961344 -0.03794859 0.028721513
0003d0 e4 d9 04 3d 19 e8 47 bd a7 b1 30 3c 36 ad 2a 3d
       0.03243436 -0.04880533 0.010784543 0.041669093
0003e0 32 f7 c6 bd a1 69 74 3d e6 77 02 3c bf d5 ea 3d
       -0.097151175 0.059671048 0.007963156 0.1146655
0003f0 27 15 fb 3a 37 a0 c5 3a 1b 3f a0 3d 62 59 94 bc
       0.0019156084 0.0015077655 0.078245364 -0.018109027

rnn.bias_ih_l0 f4 [64]
000000 be a8 d7 bc 9b b3 1c 3c ab af 47 3d 93 2c b8 bd
       -0.02632558 0.009564306 0.048751514 -0.08992877
000010 f4 14 8b bd 9b b7 8d 3c 45 1f 94 bd d5 89 e7 3d
       -0.06791106 0.017299464 -0.07232527 0.11305586
000020 a0 52 03 3e e9 cd b2 bc 45 bf af 3c 46 95 76 3d
       0.12824488 -0.021826701 0.02145351 0.060200952
000030 a3 28 ba bd 77 a8 17 bd fd f6 05 3e 3c a5 3b 3c
       -0.09089782 -0.037025895 0.130825 0.011452969
000040 a8 2d 42 bd 43 cc 62 bc 3e d3 5e 3c 7f 8e cf bd
       -0.047406822 -0.013842645 0.013600169 -0.10134601
000050 df ac 20 bd aa 0b f6 3c 9d 86 b8 bd 85 22 02 3e
       -0.039227363 0.030034859 -0.090100504 0.1270848
000060 8d 8b 30 3d 27 5d e7 bd 1b 3d 41 bc e8 3a 63 3d
       0.043101836 -0.11297064 -0.011794354 0.0554761
000070 63 6e be 3d 99 59 43 3c 67 95 ab 3d 0f 30 c8 3d
       0.09298398 0.011923217 0.083781056 0.097747914
000080 3b be b8 bd 92 4a f7 bc 0b 9a b1 bd 9b 56 fe 39
       -0.090206586 -0.030186925 -0.086719595 0.0004851118
000090 fc bc ba bd 42 f2 ce bd 03 ca 79 bb 22 ee c3 bd
       -0.09118077 -0.10104801 -0.0038114793 -0.095669046
0000a0 0a e5 d2 3c b0 c0 1d bd 82 85 66 bc d5 bc ae ba
       0.02574398 -0.03851384 -0.014069917 -0.0013331423
0000b0 78 bd 9c 3d b6 c0 f9 bb c6 69 6f bc 2f df 3c 3c
       0.07653326 -0.00762185 -0.014612621 0.0115278205
0000c0 05 81 5d 3d bd 8d 4a bd 4c 00 f0 bb b7 a5 a7 bd
       0.05407812 -0.04945158 -0.007324254 -0.081859045
0000d0 19 63 76 bd 0c 68 ec bd cb d0 28 3d e7 39 7e bd
       -0.0601531 -0.11543283 0.041214745 -0.06206694
0000e0 ea 0d 40 bd 43 24 d3 bd 3e 2c a9 3d a0 ae bf 3c
       -0.04688827 -0.10309651 0.08260392 0.023398697
0000f0 fb 1e d5 bc 09 fb 69 3d 1c 71 d1 bc be 05 af bd
       -0.02601575 0.05712417 -0.02556663 -0.08546017

rnn.bias_hh_l0 f4 [64]
000000 90 4d 82 bd 86 97 98 bd 84 0c 93 bd 9b 97 e1 bc
       -0.0636245 -0.07450776 -0.071801215 -0.027538111
000010 b6 67 d5 3d 66 26 8a 3d 3a 19 d5 3d 29 c3 fb bd
       0.10420172 0.06745605 0.10405202 -0.12293083
000020 99 7c f6 3d 8b 0d f0 3b 0e 3a b5 3d b8 3d d9 bd
       0.12035484 0.007325833 0.08848964 -0.10607475
000030 92 a2 17 3d 0f 8f 11 3d b7 76 2f bd 12 d0 2e bd
       0.037020274 0.035536822 -0.042837825 -0.0426789
000040 bc 72 80 3d 36 8e 0c 3d 70 95 6c bd a1 e1 ab bd
       0.06271884 0.03431531 -0.057759702 -0.08392645
000050 bf 5e 18 3d 38 a0 48 3d 2d 26 ad 3d 40 25 f5 bd
       0.037199732 0.04898092 0.08454547 -0.119699955
000060 d0 14 cd bd d7 32 f2 3d 6c ca 97 3b a2 62 d7 bd
       -0.10013735 0.11826103 0.004632285 -0.105168596
000070 69 e3 52 bd f1 70 f6 3c fd 59 65 3d 2d 41 dc 3d
       -0.051486406 0.030083152 0.055994023 0.10754619
000080 0e 29 77 bd f0 59 b5 bd e9 9a 31 bd 7d 43 c7 bd
       -0.060341887 -0.08855045 -0.043360624 -0.09729669
000090 ec 64 c7 3d ee bf 8e 3d 8f 64 34 bd d0 e3 8d 3d
       0.09736046 0.069702014 -0.044041213 0.069282174
0000a0 f3 a0 f9 bd e0 44 bc bd 52 bf 9b bd 3c bb 1d 3d
       -0.12188902 -0.09192824 -0.07604851 0.03850864
0000b0 d8 d2 a2 3d fd 21 53 3d 62 cc 01 be cc 01 a4 3c
       0.079503715 0.051546086 -0.12675622 0.020020388
0000c0 8c eb 8e bd 6f 87 6b 3c d8 31 da 3d 0d e0 94 bd
       -0.06978521 0.014375552 0.10654038 -0.07269297
0000d0 a3 eb 33 bc 03 64 fb ba ff 55 85 bd 4c 06 46 3d
       -0.010981473 -0.0019179586 -0.06510543 0.04834585
0000e0 80 8f 60 3d 03 9d d7 bd cb 42 ef bd 2e cb 89 3d
       0.054824352 -0.105279945 -0.116826616 0.067282066
0000f0 6e 68 19 bc 1e e8 c5 3d 25 47 b4 bd ca 91 be 3d
       -0.009363277 0.096634135 -0.08802632 0.09305151

rnn.weight_ih_l1 f4 [64, 64]
000000 80 3c cb bd e2 c5 dc 3c c0 a4 84 3c 6f 2d 23 bd
       -0.09923649 0.026949827 0.01619184 -0.03983825
000010 0b 64 a9 bd f6 31 93 bd 6f e2 af 3d cc 5f bb bc
       -0.08271035 -0.07187264 0.08588111 -0.022872828
000020 08 6c 4b bd c4 d0 00 3e a2 2f 1f bd de 68 d2 bd
       -0.049663574 0.12579638 -0.038863786 -0.10273908
000030 37 8e 69 bd cf c3 65 3d 34 98 05 3d 30 15 2a 3c
       -0.057020392 0.05609494 0.032615855 0.010381028
000040 5d d7 ca bd 9e 29 19 3d fe 46 5c 3d 56 22 8b 3d
       -0.099043585 0.037393205 0.05377864 0.067936584
000050 1e 22 0e 3e f2 88 91 3d bf d4 ce 3d 1b 8a 0d bd
       0.13880202 0.07106198 0.10099172 -0.034555536
000060 d4 eb 4a ba 7c d9 5c bd 98 05 cf 3d da 68 a2 3d
       -0.00077408296 -0.053918347 0.10108489 0.07930155
000070 33 9b cb 3d 58 0a 69 bd 6a 60 08 be c5 1c 4e 3d
       0.09941711 -0.05689463 -0.13318029 0.050320406
000080 ff ef b8 bd b5 d6 69 3c 1b 3e 1c bc c9 7c 26 3d
       -0.090301506 0.014272382 -0.0095362915 0.04064635
000090 11 20 0a 3e b2 b5 78 3d d5 3e 0f 3c 33 09 d9 bd
       0.13488795 0.060720153 0.008743008 -0.10597458
0000a0 b0 52 bb bc c7 73 bf 3d 50 7c ab 3c 22 70 1b bd
       -0.022866577 0.09348255 0.0209333 -0.037948735
0000b0 b1 dc c5 3d dd dc 77 3d 3f 82 24 3d cf 83 3b bd
       0.09661234 0.060513366 0.040163275 -0.04578
0000c0 b7 42 de bd 3d 05 a0 3d e1 83 41 bd 8a 74 61 bd
       -0.108525686 0.07813499 -0.04724491 -0.05504278
0000d0 03 4a ad 3a ad 4a b1 3d b4 fa f0 bc 84 f5 2a bd
       0.001322091 0.086568214 -0.02941642 -0.04173805
0000e0 e8 64 80 bd 9f 25 1c 3d 93 e1 cd 3d 67 87 43 bc
       -0.06269246 0.038121816 0.100527905 -0.011934138
0000f0 f8 56 b2 3c 70 b1 7d bd 25 58 a2 bd 72 95 98 bd
       0.021769986 -0.061936796 -0.079269685 -0.074503794
000100 0c 14 1a bd 3c f5 55 bd 28 0d 98 bd 4a d1 da 3c
       -0.037616774 -0.052235827 -0.07424384 0.026711125
000110 4c 98 23 bd 3b 7f 85 bd 94 a0 8d bd cb ba d3 bd
       -0.039940163 -0.06518408 -0.069153935 -0.10338362
000120 85 05 bf 3d ed 2c b7 bd 7c 0d 3a 3c b9 7d a3 bd
       0.09327225 -0.08944116 0.011355754 -0.07982964
000130 3a ea d2 3d cb b9 d6 3d de 18 f8 3d b5 14 0c 3e
       0.102985814 0.10484656 0.12114118 0.13679774
000140 c8 c1 ff bc 5f 55 a6 bd fc 5e 26 bc f9 b8 c8 bd
       -0.031220332 -0.08121752 -0.010154482 -0.09800906
000150 25 52 8b bd 61 73 e5 bc 04 3b 96 3d 4e 60 c7 bd
       -0.06802777 -0.028009119 0.07335475 -0.097351655
000160 af b9 cf 3c e1 7d ad 3c 07 df 21 be 33 29 a7 3d
       0.025357096 0.021178188 -0.15807734 0.08162155
000170 ed d8 b2 bd f6 ab c8 bd 52 37 99 bd c5 8a ba bd
       -0.087327816 -0.09798424 -0.07481255 -0.091084994
000180 a9 8d 7e bd 45 df 91 3d e1 14 f1 bc f2 e6 0a 3e
       -0.062146816 0.071226634 -0.029428901 0.13564661
000190 08 c2 c3 bd 64 95 9a bd da 69 fc bb c4 9f ee bd
       -0.09558493 -0.07548025 -0.007703048 -0.116515666
0001a0 7e 95 9b bd b0 20 e7 3d 90 54 07 bc 22 0e c8 3d
       -0.07596873 0.112855315 -0.008259907 0.097683206
0001b0 af 7b aa bd 7f 98 a8 bd 3e c9 82 bd 20 c2 aa 3a
       -0.08324372 -0.08232211 -0.0638604 0.0013027824
0001c0 57 6a bc 3b 77 db 95 bd a4 91 de 3c aa cd 8b bd
       0.0057499814 -0.0731725 0.027169056 -0.06826337
0001d0 ae ca 5f 3d 20 6b 80 bd f4 0d 9d bd 1b ce a9 3c
       0.05463665 -0.062704325 -0.07668677 0.020728162
0001e0 f4 bb 48 3d 22 48 5b 3c 69 22 e4 bd 49 b4 22 bd
       0.04900737 0.013383897 -0.11139376 -0.039722715
0001f0 02 c0 ce 3d aa be 29 3e 03 cb 27 3b aa bf f4 3c
       0.10095216 0.16576639 0.0025603182 0.029876549
000200 f5 5d e5 3d 2e 53 67 bd 87 82 e9 bb 93 0c 81 3d
       0.111995615 -0.05647581 -0.007126156 0.063012265
000210 01 41 77 3d 38 68 11 3d 17 69 dd bd 3e 15 95 3c
       0.060364727 0.03549978 -0.1081106 0.018198606
000220 f2 13 8e 3b 6e 2e 59 bd f3 7e 9a bc 35 3c c3 bc
       0.0043358738 -0.053022794 -0.018859362 -0.02383242
000230 04 37 7d 3d 14 d9 d9 3d a8 ef de bd 7c f3 47 bd
       0.061820045 0.106371075 -0.108855546 -0.04881619
000240 94 75 58 3b ae e7 c0 3d 6d 09 29 bd 0d 25 ce bc
       0.0033029066 0.094191894 -0.041268755 -0.025164152
000250 17 fa db 3d 01 34 88 bd 76 0a 0f 3d 1b 24 d8 bd
       0.1074106 -0.06650544 0.034922086 -0.105537616
000260 43 2b 06 3e 2d 0c 00 be c7 31 58 bc 28 69 df bd
       0.1310244 -0.12504645 -0.013195462 -0.10908729
000270 a5 bc d0 3c 44 f6 df bd eb 13 9d 3c 8e 50 f6 3c
       0.025480578 -0.10935643 0.019174537 0.030067708
000280 fe 5f 89 3d 8a cc 9c 3d 83 51 da bd 32 ad 72 bd
       0.06707762 0.076562 -0.106600784 -0.059247203
000290 18 46 e2 bd 87 fd 09 38 09 3b f2 3d 9a f4 e4 3c
       -0.110485256 3.289946e-05 0.11827666 0.027948666
0002a0 8f cb d7 3d ee f4 b4 bd 88 b9 30 bd 81 1c c0 bd
       0.105368726 -0.08835779 -0.043145686 -0.09380437
0002b0 b5 87 04 bc 55 a1 a0 3d d1 d7 e0 bd 0c f2 ad 3d
       -0.008088996 0.07843272 -0.10978664 0.084934324
0002c0 20 26 23 bd 90 13 8a bd f5 fe 9e 3c 96 24 38 3d
       -0.03983128 -0.067420125 0.019408682 0.044956766
0002d0 e2 77 72 3c af 1d ff bc e5 b6 00 3d d7 05 d9 bc
       0.01479909 -0.031142084 0.03142442 -0.026492042
0002e0 a6 89 d1 bc 08 fa a0 bd 6d 49 88 3d 65 93 9c 3d
       -0.025578331 -0.0786019 0.0665463 0.07645301
0002f0 c5 08 57 3c 86 da 28 bd 92 0a 8a 3c 34 7e e3 3b
       0.013124649 -0.041224025 0.016850743 0.006942535
000300 32 25 10 bd 36 51 d9 bc 5c 88 b3 bd 7c 76 15 bc
       -0.035191722 -0.026527982 -0.08766243 -0.009122487
000310 e9 a2 63 3d d3 c3 0d 3d 44 c8 7a bd d3 33 f8 bc
       0.055575285 0.03461058 -0.061226144 -0.03029815
000320 94 e3 62 3d 04 01 eb bd 89 2c 4a 3d 92 31 b0 3d
       0.055392817 -0.11474803 0.04935888 0.08603205
000330 98 92 61 3d 5b 54 d5 bd d5 1f de 3d 34 c2 7d bd
       0.055071443 -0.1041648 0.10845915 -0.061952785
000340 b9 3b b8 3d 98 d9 93 3d b8 46 4a 3b 35 47 85 bc
       0.08995766 0.07219237 0.0030864906 -0.016269306
000350 cf b9 fd bd b2 ae ea 3c b6 1f a5 3c ac 25 af bd
       -0.12388956 0.028647754 0.020156723 -0.08552107
000360 b1 f4 b7 bc d7 c0 a3 3d 47 e1 11 3d fa df e8 bc
       -0.022455545 0.07995766 0.03561523 -0.028427113
000370 f8 36 0e bd dc 34 6a bd 6d 69 96 bd 8d ba bf bd
       -0.03472039 -0.057179317 -0.07344327 -0.093617536
000380 ad ec 4b 3d 4e 32 62 bd f4 a5 de 3d 72 bf 92 bc
       0.04978626 -0.055223756 0.10871497 -0.017913554
000390 e4 c6 db 3d 1c a3 82 bd eb 66 db bd 9b 9e cf bd
       0.10731295 -0.06378767 -0.107129894 -0.101376735
0003a0 63 3b cb bc 11 28 a2 3d b8 84 e3 bd 42 1a 58 3d
       -0.024808591 0.07917798 -0.111092985 0.052759416
0003b0 b8 33 e4 3c 25 10 8c 3d 24 7c cf bb 5e 36 83 3d
       0.027856693 0.06839017 -0.0063319374 0.06406854
0003c0 8f 9e b4 bd f5 a8 a5 3d 69 23 96 bc 67 74 d9 3c
       -0.08819305 0.080888666 -0.018327432 0.026544763
0003d0 fb 89 d5 3c 6c b8 84 3c 9a a8 a4 bd 2b a9 d4 bd
       0.02606677 0.01620122 -0.08039971 -0.10383829
0003e0 3a 3c e3 bd 05 78 11 3d de 52 f4 bd 96 a0 fb bd
       -0.11095472 0.03551485 -0.11929868 -0.12286489
0003f0 cb 18 a6 bd c2 77 15 3e ee 53 04 3e 09 70 c4 bd
       -0.08110198 0.14596465 0.12922642 -0.095916815

rnn.weight_hh_l1 f4 [64, 64]
000000 4e 26 8a bd 6a bd 1b be eb ec 49 3d 74 ed 8f 3d
       -0.06745587 -0.15208974 0.04929821 0.070277125
000010 23 be ca bc d2 8f d2 bd 76 e6 66 3d 20 8d f9 bd
       -0.024748867 -0.10281338 0.05637213 -0.121851206
000020 4c ef 0b 3d f1 2f da bd b3 d0 bc bd 7c f8 97 3d
       0.03416376 -0.10653675 -0.09219494 0.074204415
000030 6d 9d 94 bd 78 b7 70 3b e9 eb ee bd 16 d9 8e 3d
       -0.07256589 0.003673045 -0.1166609 0.069749996
000040 96 7e fb bd 83 7a c3 3d 90 c8 00 3d 72 cc 79 bc
       -0.12280004 0.09544852 0.03144127 -0.0152464975
000050 02 ed e3 3d 4e 8d c9 3d 08 7b 02 be 08 81 c3 3d
       0.1112919 0.09841405 -0.12742245 0.09546095
000060 c2 62 69 3c f4 cf 71 bc a5 8b 6c 3d cf b0 85 bd
       0.014244737 -0.014759053 0.057750363 -0.06527864
000070 67 6c 10 3e d0 fc c7 3d e8 ee a1 bd 58 a3 c3 bd
       0.14103852 0.09765017 -0.07906896 -0.0955264
000080 27 b3 6c bd 94 41 b8 3c 8b 33 9e 3b 5b 72 fc bd
       -0.05778804 0.022492208 0.0048279217 -0.12326499
000090 2d 8a 05 bd 5b 5c a6 bd 08 c2 78 bd fd 50 20 3d
       -0.032602478 -0.08123084 -0.060731918 0.039139736
0000a0 87 f5 20 bc 9c 4c b3 bd ca 3e c5 bd 33 b2 4e 3d
       -0.009824163 -0.087548465 -0.09631117 0.050462913
0000b0 61 b5 93 3c 45 cb db bd 36 2f f2 3d fc 5b c7 bd
       0.018030824 -0.1073213 0.11825411 -0.097343415
0000c0 e6 8e bf bd bd f6 7a 3b 9a 43 73 bd 38 90 22 3c
       -0.093534276 0.003829404 -0.05939064 0.00992208
0000d0 ae 5d 86 3d 3a b4 97 3d ef 48 da 3c c0 63 db 3c
       0.06560837 0.07407422 0.026646106 0.026780963
0000e0 61 fe ce bd 67 fe 42 3d f7 a9 95 3d 25 1c 56 3c
       -0.10107113 0.0476059 0.07307809 0.013068234
0000f0 be d4 28 bd 08 5b 7d bd 67 ab f6 bd 93 2f 09 3d
       -0.04121851 -0.061854392 -0.12044411 0.033492636
000100 56 36 a7 3d eb 9c 03 bd 85 d0 9b bd f5 c9 b9 3d
       0.08164661 -0.03213207 -0.07608131 0.09071723
000110 a9 ef 10 3c 1d 13 4b 3c 91 3a 3d bd 1c 3a e9 bd
       0.008846202 0.012394694 -0.04619843 -0.113880366
000120 58 db 8d bd a9 af b2 3c 8b 74 d2 3d 03 d7 f3 bc
       -0.06926602 0.021812277 0.10276135 -0.029765612
000130 67 d1 c3 bd 3d 23 e0 3c bc b6 92 3d 9f b5 27 bd
       -0.09561425 0.027360553 0.0716376 -0.04094469
000140 6f fd a0 bd 1a d5 6c 3d d8 d2 cc bd 78 0f d9 3d
       -0.078608386 0.057820417 -0.10001153 0.105986536
000150 7e bd 84 bd c9 60 ac 3d 12 2f 0c bd 22 91 b1 3d
       -0.06481455 0.08416898 -0.034224577 0.0867026
000160 43 72 d5 bd de 27 9a 3d 29 a8 22 bd a6 c3 93 bd
       -0.10422184 0.07527135 -0.03971115 -0.07215051
000170 56 07 c0 3d 1a 93 1d 3c e9 eb db 3d 9d af f0 bc
       0.09376399 0.009617591 0.10738356 -0.029380614
000180 4a 13 75 bd 2b 62 ab 3d 13 da c8 bd 32 ed d2 3c
       -0.05983285 0.083683334 -0.09807219 0.02574787
000190 4e ea bd 3d 4d 3a c7 3d 5b 54 eb bd ba aa e0 bd
       0.09273206 0.09727917 -0.11490699 -0.109700635
0001a0 1c 63 28 3d c9 5e f3 3c 01 ff af bd 64 17 57 bd
       0.041110143 0.029708283 -0.0859356 -0.05251254
0001b0 20 b9 07 be b0 23 f2 bd 4d b4 c8 bc 0a 4f bf bc
       -0.13254213 -0.11823213 -0.024500037 -0.023353118
0001c0 d3 aa d3 bd 20 f0 e0 3d 22 b5 bb 3d 31 91 ae bd
       -0.103353165 0.109833 0.09165408 -0.08523787
0001d0 c6 45 79 bd 68 73 5f bd 3e e5 fe bd d6 ce 8e 3d
       -0.060857557 -0.05455342 -0.12446068 0.069730446
0001e0 46 33 cd 3d 32 64 d7 3d 9d 57 bc bd 4b bb 0e bd
       0.10019545 0.105171576 -0.091963984 -0.034846585
0001f0 7f 5e 0e bd 5b 9f c4 bd 9c a4 ea bd d8 bd 90 bd
       -0.034758087 -0.09600707 -0.11457178 -0.0706746
000200 c7 e3 01 3e ba a2 47 bd 49 b0 84 ba 7a d3 d6 3d
       0.12684546 -0.048739173 -0.0010123338 0.10489555
000210 a4 16 b1 bd bb 77 05 be 4c 79 f5 3d 16 64 6f bd
       -0.086468965 -0.13033955 0.11986026 -0.05844506
000220 ea 07 88 3c 12 32 81 bc d9 ff 5d 3d 97 e5 83 3d
       0.016605336 -0.015770946 0.054199073 0.06440275
000230 2f b1 de bd 92 f1 d6 3d 76 4c d0 3d 2b ca 3c bd
       -0.10873639 0.10495295 0.10170834 -0.04609124
000240 28 7d cb bd bd 0a d1 3d 9b aa ee bd 73 68 a1 3d
       -0.09935981 0.10207126 -0.11653634 0.0788125
000250 da 57 09 be 36 71 18 bd b8 fe 9b 3d a2 5a 48 bd
       -0.13412419 -0.03721734 0.07616943 -0.04891456
000260 38 30 9b 3c 78 a7 b8 bd 7a 22 ad 3c 48 c2 ce bd
       0.01894389 -0.09016317 0.021134604 -0.1009565
000270 fa 0b 65 bd a4 d1 6d 3c b9 95 57 3d 66 ba b5 3d
       -0.055919625 0.014515314 0.05263302 0.08873443
000280 08 b3 ff bb ce 2d 8a 3d 2a 7d ce 3b 15 ed f0 3d
       -0.0078033246 0.06747018 0.006301542 0.1176397
000290 0a 96 cf bc e6 b4 c7 3d 33 ee b9 3d e1 e2 ee bd
       -0.025340099 0.097513005 0.09078636 -0.116643675
0002a0 93 d6 a8 bd 40 07 60 3d de b7 07 3d 75 13 c9 bd
       -0.08244052 0.054694414 0.033134334 -0.09818164
0002b0 6c f1 b9 bd 65 68 29 bc ec 0a b7 bd d9 c2 3b 3d
       -0.09079251 -0.010339831 -0.0893763 0.045840118
0002c0 bf b9 e2 3c 99 45 25 3d 70 69 6b 3d a2 af cd 3d
       0.027676461 0.040349577 0.0574736 0.10043265
0002d0 5b e0 01 3e e6 16 50 bd 55 28 07 3d 59 75 a9 bd
       0.12683241 -0.050803088 0.032997448 -0.082743354
0002e0 aa 1c a9 bd d7 78 0a be 75 db 14 3d cd 5d e5 3c
       -0.0825742 -0.13522659 0.036342103 0.02799883
0002f0 48 86 06 bc 52 cb 36 bd e0 69 9e 3a a7 c4 04 be
       -0.008210726 -0.044627495 0.0012085997 -0.12965642
000300 47 61 2d bd 3a 9c e6 ba 96 48 2e 3d ad 58 28 bd
       -0.0423291 -0.0017594167 0.042549692 -0.041100193
000310 64 78 e8 3d ad 66 a2 3d c7 ed 68 3d bb 48 b9 3d
       0.11351088 0.0792974 0.056867387 0.09047075
000320 af 5c cc 3d c0 75 ce 3c 80 51 2d 3d f3 44 87 bc
       0.099786155 0.025202632 0.042314053 -0.01651237
000330 8e d1 8f 3d b7 61 0f bd 1e e5 88 bd 45 10 81 bd
       0.07022391 -0.035005298 -0.06684326 -0.06301931
000340 69 30 ce bd cb 25 70 3b 39 87 d7 bd 84 e8 44 3c
       -0.10067827 0.003664362 -0.105238385 0.012018327
000350 2d 42 ce bd fa 91 a4 3d 16 11 34 bd 01 98 9b bb
       -0.10071216 0.08035655 -0.043961607 -0.004748345
000360 d1 fe 95 3d cb 89 c4 3c 36 e2 42 bd 6e a4 aa bd
       0.07323993 0.023991486 -0.047579013 -0.08332144
000370 05 f2 1f bd 87 d5 e2 bd 06 32 b1 3d 56 c6 d7 bd
       -0.039049167 -0.11075883 0.08652119 -0.105358765
000380 af 7e 2d 3d dc e7 90 bd bb 8a d3 bd 55 e8 99 bb
       0.042357143 -0.07075474 -0.10329195 -0.0046968856
000390 ab de 06 3d 22 64 ff bd 4e 19 93 3d e2 01 68 bc
       0.032927196 -0.12470271 0.07182561 -0.014160605
0003a0 9e 0b a0 3d 0a a7 88 3b 04 87 30 bd 6b 9b a8 3d
       0.07814716 0.0041703032 -0.04309751 0.082327686
0003b0 6a fc 0d 3d 89 96 9d bd 96 17 b4 3d 6a 61 bd 3d
       0.03466455 -0.07694728 0.08793561 0.09247096
0003c0 c9 10 04 be 83 93 11 bd 72 26 b1 bd f3 28 2b 3d
       -0.12897028 -0.03554107 -0.08649911 0.0417871
0003d0 43 d4 6d bd cc 6a f2 bd d9 6f 00 be 25 38 b3 3d
       -0.058063757 -0.11836776 -0.12542666 0.08750943
0003e0 2a 20 dc bd ea 79 ec 3c 13 83 ca bc 21 aa 87 3d
       -0.10748322 0.028866727 -0.024720704 0.066242464
0003f0 77 b6 a2 bd 0c 8b 2b bc 85 9c ac bb 37 a3 f0 3c
       -0.07944959 -0.010470163 -0.005267682 0.029374702

rnn.bias_ih_l1 f4 [64]
000000 e1 13 c7 bd 26 7a 6f bd 11 9a b0 3d b6 a6 47 bd
       -0.097205885 -0.0584661 0.08623136 -0.048742972
000010 91 71 5f bc 62 01 ee 3d 9e da 82 bd ab cf e5 bd
       -0.013637916 0.116213575 -0.06389354 -0.1122125
000020 c1 7c 3e 3d 45 62 e4 3d d7 46 24 3d 0e ba 94 3d
       0.046505693 0.11151556 0.04010662 0.072620496
000030 0a 6e cd bc 1a fb ca 3d 97 4f 32 3d cf 90 6b 3d
       -0.025076885 0.09911175 0.043532934 0.057511147
000040 a5 00 8e 3d d8 dc e3 bd e7 03 bc 3d cc fe 9e 3d
       0.06933717 -0.11126107 0.09180432 0.077634424
000050 7d 24 bf 3d 8c b1 63 bd 20 55 ae bd 1a 64 86 3c
       0.093331315 -0.055589244 -0.0851233 0.016405154
000060 b9 4e a3 3c a8 ef 1b 3d 66 57 ca 3c de 79 c4 bd
       0.019934999 0.03807035 0.024699878 -0.09593557
000070 f8 87 00 3e 04 4f cd 3d a2 8b d5 bd 7f f0 85 bd
       0.12551868 0.10024837 -0.104270235 -0.065400116
000080 32 63 98 3d 15 33 33 bd 59 b9 01 3e 38 66 4a bd
       0.07440795 -0.043749887 0.12668361 -0.04941389
000090 49 03 4e bd 1d 76 c9 3c 15 82 b2 3d 9e 2e f5 3d
       -0.0502961 0.024592454 0.087162174 0.11971782
0000a0 cf bf b0 3d 9a 95 9a bd b8 42 15 3c 37 3a b2 bd
       0.086303346 -0.075480655 0.009110145 -0.0870251
0000b0 f9 87 b5 3d bb 58 8a bd 86 f8 51 3d 7e ab 97 bd
       0.08863825 -0.06755205 0.0512624 -0.074057564
0000c0 f3 34 61 bd 6e 8a e7 bd 59 41 e6 3d 6c 95 98 bd
       -0.054982137 -0.113057 0.11242933 -0.07450375
0000d0 e8 51 7e 3c 24 75 0e bc 66 77 5a 3d b8 77 b8 bd
       0.015522458 -0.008694921 0.053336523 -0.090072095
0000e0 59 90 5d bd d1 26 1c 3d 26 d0 64 3d 38 d5 ce bd
       -0.05409274 0.038122956 0.05586257 -0.10099262
0000f0 67 eb 18 bd 68 d9 b9 3c dc 33 d4 3d 1a 0e 13 bd
       -0.037333872 0.022686675 0.10361454 -0.03590212

rnn.bias_hh_l1 f4 [64]
000000 37 64 06 3e bf f0 77 3c 26 44 c0 3d 2c 56 c0 3d
       0.13124166 0.015133082 0.09387998 0.09391436
000010 e9 2e 84 3d 5b aa eb 3b 4e 8c bc bd a8 af ff bc
       0.0645426 0.007191939 -0.092064485 -0.03121169
000020 5e ba c2 bd dc 41 f7 3d e1 da 93 3c 6e e9 ae 3d
       -0.09508203 0.120731086 0.018048706 0.08540617
000030 45 0c d1 bd a8 ae d9 bd 87 f3 09 bd 17 6f 57 bd
       -0.10207418 -0.10629016 -0.03367951 -0.052596178
000040 6d ac 14 bd b9 61 3f bd 6d 22 a9 3c 2e ed ba bd
       -0.03629725 -0.046724055 0.020646298 -0.0912727
000050 52 5f b9 3b 93 fc eb bd 97 3d b1 3d 72 9f da bd
       0.005657115 -0.11522784 0.086543255 -0.10674943
000060 7f 7d 01 3e a0 94 b5 3d 05 05 6f bd 43 ee f1 39
       0.12645529 0.088662386 -0.058354396 0.0004614462
000070 ff d9 17 bd 5b 8a b1 bc be f3 62 bd 42 8a d5 bd
       -0.03707313 -0.021672418 -0.055408232 -0.10426761
000080 a7 98 da bc 91 fe e9 3d cb b0 55 3d 8a 97 e7 bd
       -0.026684118 0.11425508 0.052170556 -0.11308201
000090 50 03 10 bc d2 12 a4 ba e7 3f b7 bc 1a 70 bc bd
       -0.008789852 -0.0012517816 -0.022369338 -0.09201069
0000a0 5a ea 3e bc 98 41 f4 bc f5 f5 bb 3d da 37 f0 3b
       -0.011652553 -0.029816434 0.09177772 0.007330877
0000b0 90 01 19 3d 5d 1d da bc da 5f 76 3d 2c fe 95 3d
       0.037355006 -0.02662533 0.060150005 0.0732387
0000c0 5c 89 49 3d 66 93 78 3d fd 7c bd bd 5a 60 45 3d
       0.04920326 0.060687445 -0.09252355 0.04818759
0000d0 60 51 3f bd b2 0b b0 3d 31 81 b6 3d dc c7 b5 bd
       -0.046708465 0.08595981 0.0891136 -0.08876011
0000e0 78 dd 42 bd 88 ed ef 3d c2 1d a8 3d f3 8b 20 bd
       -0.04757449 0.11715227 0.08208801 -0.039195966
0000f0 a3 78 ed 3c 3f a0 08 3d 51 25 57 bd 4d 6e 8d 3c
       0.028988188 0.033355948 -0.052525822 0.01726451

fc.weight f4 [1, 64]
000000 87 f3 95 3d c1 2f 72 bd db 0d 5b bd 7a 68 80 bd
       0.0732184 -0.059127573 -0.05348001 -0.06269927
000010 35 41 86 3d 27 11 77 3d 78 11 b7 bd 0d 92 73 3d
       0.06555406 0.060319092 -0.08938879 0.059465457
000020 64 2c bd 3b 68 5c 38 bd 92 8f 97 3d 72 1a e7 3d
       0.005773114 -0.04501 0.07400431 0.11284341
000030 f5 8e f3 bc 1c 11 f3 bc 21 e3 b5 bd ce 71 e5 bc
       -0.029731253 -0.029671244 -0.08881212 -0.028008368
000040 1b 10 57 3c 37 23 ed 3c a1 5d 9c 3d 85 7c a1 3d
       0.013126398 0.028947456 0.07635046 0.07885078
000050 ca 2c 80 3d 60 b6 09 bd f0 d1 ce bc 52 70 a0 3d
       0.06258543 -0.033621192 -0.02524659 0.078339234
000060 4d 30 d4 3d 0e 60 04 3e a6 0a d8 3c 67 97 bd bd
       0.10360775 0.12927267 0.026372265 -0.09257393
000070 45 b7 09 3e ac 64 f2 3d 10 81 05 be 03 35 5b bd
       0.13448818 0.11835608 -0.13037515 -0.053517353
000080 4b 98 b8 bd 8a 50 de 3c e7 c5 00 3e da 39 7a bc
       -0.090134226 0.027138013 0.12575494 -0.015272582
000090 f1 50 c8 3c 7a 84 84 bd a9 f5 94 bc c9 00 e9 3d
       0.024452658 -0.064705804 -0.018183546 0.11377103
0000a0 54 ea 50 ba ec 55 c9 bd cb 76 22 bd 11 6d 53 3d
       -0.0007969488 -0.098308414 -0.03966407 0.051617686
0000b0 67 90 9a bd 00 f4 c3 3d 58 6f a1 bd 0a 28 12 bd
       -0.07547074 0.09568024 -0.07882565 -0.035682715
0000c0 39 ec a9 3d 99 9a 90 bd f1 a5 f0 bd ec 12 27 bd
       0.08297009 -0.07060737 -0.11750401 -0.04078953
0000d0 83 82 19 bd bd 61 d8 3d 00 d6 dc bd 23 dc 90 bd
       -0.03747798 0.10565517 -0.10783005 -0.07073238
0000e0 5a 6f e3 bc 4a 55 dd 3d 21 8f 12 bd d4 2f da bd
       -0.027763058 0.10807283 -0.03578103 -0.10653654
0000f0 65 14 9d 3d b4 44 79 bd 07 0d 2f 3d c8 4d 06 3b
       0.076699056 -0.060856536 0.042737033 0.0020493139
